{"class_name": "Model", "keras_version": "2.2.4", "config": {"name": "model_1", "input_layers": [["input_1", 0, 0]], "layers": [{"class_name": "InputLayer", "name": "input_1", "config": {"batch_input_shape": [null, 9, 224, 224, 3], "name": "input_1", "dtype": "float32", "sparse": false}, "inbound_nodes": []}, {"class_name": "TimeDistributed", "name": "time_distributed_1", "config": {"name": "time_distributed_1", "trainable": true, "layer": {"class_name": "Model", "config": {"name": "xception", "input_layers": [["input_2", 0, 0]], "layers": [{"class_name": "InputLayer", "name": "input_2", "config": {"batch_input_shape": [null, 224, 224, 3], "sparse": false, "name": "input_2", "dtype": "float32"}, "inbound_nodes": []}, {"class_name": "Conv2D", "name": "block1_conv1", "config": {"padding": "valid", "bias_constraint": null, "kernel_regularizer": null, "data_format": "channels_last", "activation": "linear", "name": "block1_conv1", "filters": 32, "kernel_size": [3, 3], "kernel_constraint": null, "strides": [2, 2], "activity_regularizer": null, "trainable": true, "bias_initializer": {"class_name": "Zeros", "config": {}}, "use_bias": false, "bias_regularizer": null, "kernel_initializer": {"class_name": "VarianceScaling", "config": {"distribution": "uniform", "seed": null, "mode": "fan_avg", "scale": 1.0}}, "dilation_rate": [1, 1]}, "inbound_nodes": [[["input_2", 0, 0, {}]]]}, {"class_name": "BatchNormalization", "name": "block1_conv1_bn", "config": {"beta_initializer": {"class_name": "Zeros", "config": {}}, "moving_variance_initializer": {"class_name": "Ones", "config": {}}, "momentum": 0.99, "gamma_initializer": {"class_name": "Ones", "config": {}}, "moving_mean_initializer": {"class_name": "Zeros", "config": {}}, "scale": true, "beta_regularizer": null, "beta_constraint": null, "epsilon": 0.001, "trainable": true, "axis": -1, "gamma_constraint": null, "name": "block1_conv1_bn", "gamma_regularizer": null, "center": true}, "inbound_nodes": [[["block1_conv1", 0, 0, {}]]]}, {"class_name": "Activation", "name": "block1_conv1_act", "config": {"name": "block1_conv1_act", "trainable": true, "activation": "relu"}, "inbound_nodes": [[["block1_conv1_bn", 0, 0, {}]]]}, {"class_name": "Conv2D", "name": "block1_conv2", "config": {"padding": "valid", "bias_constraint": null, "kernel_regularizer": null, "data_format": "channels_last", "activation": "linear", "name": "block1_conv2", "filters": 64, "kernel_size": [3, 3], "kernel_constraint": null, "strides": [1, 1], "activity_regularizer": null, "trainable": true, "bias_initializer": {"class_name": "Zeros", "config": {}}, "use_bias": false, "bias_regularizer": null, "kernel_initializer": {"class_name": "VarianceScaling", "config": {"distribution": "uniform", "seed": null, "mode": "fan_avg", "scale": 1.0}}, "dilation_rate": [1, 1]}, "inbound_nodes": [[["block1_conv1_act", 0, 0, {}]]]}, {"class_name": "BatchNormalization", "name": "block1_conv2_bn", "config": {"beta_initializer": {"class_name": "Zeros", "config": {}}, "moving_variance_initializer": {"class_name": "Ones", "config": {}}, "momentum": 0.99, "gamma_initializer": {"class_name": "Ones", "config": {}}, "moving_mean_initializer": {"class_name": "Zeros", "config": {}}, "scale": true, "beta_regularizer": null, "beta_constraint": null, "epsilon": 0.001, "trainable": true, "axis": -1, "gamma_constraint": null, "name": "block1_conv2_bn", "gamma_regularizer": null, "center": true}, "inbound_nodes": [[["block1_conv2", 0, 0, {}]]]}, {"class_name": "Activation", "name": "block1_conv2_act", "config": {"name": "block1_conv2_act", "trainable": true, "activation": "relu"}, "inbound_nodes": [[["block1_conv2_bn", 0, 0, {}]]]}, {"class_name": "SeparableConv2D", "name": "block2_sepconv1", "config": {"padding": "same", "bias_constraint": null, "bias_initializer": {"class_name": "Zeros", "config": {}}, "pointwise_initializer": {"class_name": "VarianceScaling", "config": {"distribution": "uniform", "seed": null, "mode": "fan_avg", "scale": 1.0}}, "activation": "linear", "depthwise_constraint": null, "bias_regularizer": null, "pointwise_regularizer": null, "depthwise_regularizer": null, "filters": 128, "kernel_size": [3, 3], "pointwise_constraint": null, "data_format": "channels_last", "activity_regularizer": null, "trainable": true, "strides": [1, 1], "dilation_rate": [1, 1], "name": "block2_sepconv1", "use_bias": false, "depthwise_initializer": {"class_name": "VarianceScaling", "config": {"distribution": "uniform", "seed": null, "mode": "fan_avg", "scale": 1.0}}, "depth_multiplier": 1}, "inbound_nodes": [[["block1_conv2_act", 0, 0, {}]]]}, {"class_name": "BatchNormalization", "name": "block2_sepconv1_bn", "config": {"beta_initializer": {"class_name": "Zeros", "config": {}}, "moving_variance_initializer": {"class_name": "Ones", "config": {}}, "momentum": 0.99, "gamma_initializer": {"class_name": "Ones", "config": {}}, "moving_mean_initializer": {"class_name": "Zeros", "config": {}}, "scale": true, "beta_regularizer": null, "beta_constraint": null, "epsilon": 0.001, "trainable": true, "axis": -1, "gamma_constraint": null, "name": "block2_sepconv1_bn", "gamma_regularizer": null, "center": true}, "inbound_nodes": [[["block2_sepconv1", 0, 0, {}]]]}, {"class_name": "Activation", "name": "block2_sepconv2_act", "config": {"name": "block2_sepconv2_act", "trainable": true, "activation": "relu"}, "inbound_nodes": [[["block2_sepconv1_bn", 0, 0, {}]]]}, {"class_name": "SeparableConv2D", "name": "block2_sepconv2", "config": {"padding": "same", "bias_constraint": null, "bias_initializer": {"class_name": "Zeros", "config": {}}, "pointwise_initializer": {"class_name": "VarianceScaling", "config": {"distribution": "uniform", "seed": null, "mode": "fan_avg", "scale": 1.0}}, "activation": "linear", "depthwise_constraint": null, "bias_regularizer": null, "pointwise_regularizer": null, "depthwise_regularizer": null, "filters": 128, "kernel_size": [3, 3], "pointwise_constraint": null, "data_format": "channels_last", "activity_regularizer": null, "trainable": true, "strides": [1, 1], "dilation_rate": [1, 1], "name": "block2_sepconv2", "use_bias": false, "depthwise_initializer": {"class_name": "VarianceScaling", "config": {"distribution": "uniform", "seed": null, "mode": "fan_avg", "scale": 1.0}}, "depth_multiplier": 1}, "inbound_nodes": [[["block2_sepconv2_act", 0, 0, {}]]]}, {"class_name": "BatchNormalization", "name": "block2_sepconv2_bn", "config": {"beta_initializer": {"class_name": "Zeros", "config": {}}, "moving_variance_initializer": {"class_name": "Ones", "config": {}}, "momentum": 0.99, "gamma_initializer": {"class_name": "Ones", "config": {}}, "moving_mean_initializer": {"class_name": "Zeros", "config": {}}, "scale": true, "beta_regularizer": null, "beta_constraint": null, "epsilon": 0.001, "trainable": true, "axis": -1, "gamma_constraint": null, "name": "block2_sepconv2_bn", "gamma_regularizer": null, "center": true}, "inbound_nodes": [[["block2_sepconv2", 0, 0, {}]]]}, {"class_name": "Conv2D", "name": "conv2d_1", "config": {"padding": "same", "bias_constraint": null, "kernel_regularizer": null, "data_format": "channels_last", "activation": "linear", "name": "conv2d_1", "filters": 128, "kernel_size": [1, 1], "kernel_constraint": null, "strides": [2, 2], "activity_regularizer": null, "trainable": true, "bias_initializer": {"class_name": "Zeros", "config": {}}, "use_bias": false, "bias_regularizer": null, "kernel_initializer": {"class_name": "VarianceScaling", "config": {"distribution": "uniform", "seed": null, "mode": "fan_avg", "scale": 1.0}}, "dilation_rate": [1, 1]}, "inbound_nodes": [[["block1_conv2_act", 0, 0, {}]]]}, {"class_name": "MaxPooling2D", "name": "block2_pool", "config": {"padding": "same", "strides": [2, 2], "data_format": "channels_last", "trainable": true, "name": "block2_pool", "pool_size": [3, 3]}, "inbound_nodes": [[["block2_sepconv2_bn", 0, 0, {}]]]}, {"class_name": "BatchNormalization", "name": "batch_normalization_1", "config": {"beta_initializer": {"class_name": "Zeros", "config": {}}, "moving_variance_initializer": {"class_name": "Ones", "config": {}}, "momentum": 0.99, "gamma_initializer": {"class_name": "Ones", "config": {}}, "moving_mean_initializer": {"class_name": "Zeros", "config": {}}, "scale": true, "beta_regularizer": null, "beta_constraint": null, "epsilon": 0.001, "trainable": true, "axis": -1, "gamma_constraint": null, "name": "batch_normalization_1", "gamma_regularizer": null, "center": true}, "inbound_nodes": [[["conv2d_1", 0, 0, {}]]]}, {"class_name": "Add", "name": "add_1", "config": {"name": "add_1", "trainable": true}, "inbound_nodes": [[["block2_pool", 0, 0, {}], ["batch_normalization_1", 0, 0, {}]]]}, {"class_name": "Activation", "name": "block3_sepconv1_act", "config": {"name": "block3_sepconv1_act", "trainable": true, "activation": "relu"}, "inbound_nodes": [[["add_1", 0, 0, {}]]]}, {"class_name": "SeparableConv2D", "name": "block3_sepconv1", "config": {"padding": "same", "bias_constraint": null, "bias_initializer": {"class_name": "Zeros", "config": {}}, "pointwise_initializer": {"class_name": "VarianceScaling", "config": {"distribution": "uniform", "seed": null, "mode": "fan_avg", "scale": 1.0}}, "activation": "linear", "depthwise_constraint": null, "bias_regularizer": null, "pointwise_regularizer": null, "depthwise_regularizer": null, "filters": 256, "kernel_size": [3, 3], "pointwise_constraint": null, "data_format": "channels_last", "activity_regularizer": null, "trainable": true, "strides": [1, 1], "dilation_rate": [1, 1], "name": "block3_sepconv1", "use_bias": false, "depthwise_initializer": {"class_name": "VarianceScaling", "config": {"distribution": "uniform", "seed": null, "mode": "fan_avg", "scale": 1.0}}, "depth_multiplier": 1}, "inbound_nodes": [[["block3_sepconv1_act", 0, 0, {}]]]}, {"class_name": "BatchNormalization", "name": "block3_sepconv1_bn", "config": {"beta_initializer": {"class_name": "Zeros", "config": {}}, "moving_variance_initializer": {"class_name": "Ones", "config": {}}, "momentum": 0.99, "gamma_initializer": {"class_name": "Ones", "config": {}}, "moving_mean_initializer": {"class_name": "Zeros", "config": {}}, "scale": true, "beta_regularizer": null, "beta_constraint": null, "epsilon": 0.001, "trainable": true, "axis": -1, "gamma_constraint": null, "name": "block3_sepconv1_bn", "gamma_regularizer": null, "center": true}, "inbound_nodes": [[["block3_sepconv1", 0, 0, {}]]]}, {"class_name": "Activation", "name": "block3_sepconv2_act", "config": {"name": "block3_sepconv2_act", "trainable": true, "activation": "relu"}, "inbound_nodes": [[["block3_sepconv1_bn", 0, 0, {}]]]}, {"class_name": "SeparableConv2D", "name": "block3_sepconv2", "config": {"padding": "same", "bias_constraint": null, "bias_initializer": {"class_name": "Zeros", "config": {}}, "pointwise_initializer": {"class_name": "VarianceScaling", "config": {"distribution": "uniform", "seed": null, "mode": "fan_avg", "scale": 1.0}}, "activation": "linear", "depthwise_constraint": null, "bias_regularizer": null, "pointwise_regularizer": null, "depthwise_regularizer": null, "filters": 256, "kernel_size": [3, 3], "pointwise_constraint": null, "data_format": "channels_last", "activity_regularizer": null, "trainable": true, "strides": [1, 1], "dilation_rate": [1, 1], "name": "block3_sepconv2", "use_bias": false, "depthwise_initializer": {"class_name": "VarianceScaling", "config": {"distribution": "uniform", "seed": null, "mode": "fan_avg", "scale": 1.0}}, "depth_multiplier": 1}, "inbound_nodes": [[["block3_sepconv2_act", 0, 0, {}]]]}, {"class_name": "BatchNormalization", "name": "block3_sepconv2_bn", "config": {"beta_initializer": {"class_name": "Zeros", "config": {}}, "moving_variance_initializer": {"class_name": "Ones", "config": {}}, "momentum": 0.99, "gamma_initializer": {"class_name": "Ones", "config": {}}, "moving_mean_initializer": {"class_name": "Zeros", "config": {}}, "scale": true, "beta_regularizer": null, "beta_constraint": null, "epsilon": 0.001, "trainable": true, "axis": -1, "gamma_constraint": null, "name": "block3_sepconv2_bn", "gamma_regularizer": null, "center": true}, "inbound_nodes": [[["block3_sepconv2", 0, 0, {}]]]}, {"class_name": "Conv2D", "name": "conv2d_2", "config": {"padding": "same", "bias_constraint": null, "kernel_regularizer": null, "data_format": "channels_last", "activation": "linear", "name": "conv2d_2", "filters": 256, "kernel_size": [1, 1], "kernel_constraint": null, "strides": [2, 2], "activity_regularizer": null, "trainable": true, "bias_initializer": {"class_name": "Zeros", "config": {}}, "use_bias": false, "bias_regularizer": null, "kernel_initializer": {"class_name": "VarianceScaling", "config": {"distribution": "uniform", "seed": null, "mode": "fan_avg", "scale": 1.0}}, "dilation_rate": [1, 1]}, "inbound_nodes": [[["add_1", 0, 0, {}]]]}, {"class_name": "MaxPooling2D", "name": "block3_pool", "config": {"padding": "same", "strides": [2, 2], "data_format": "channels_last", "trainable": true, "name": "block3_pool", "pool_size": [3, 3]}, "inbound_nodes": [[["block3_sepconv2_bn", 0, 0, {}]]]}, {"class_name": "BatchNormalization", "name": "batch_normalization_2", "config": {"beta_initializer": {"class_name": "Zeros", "config": {}}, "moving_variance_initializer": {"class_name": "Ones", "config": {}}, "momentum": 0.99, "gamma_initializer": {"class_name": "Ones", "config": {}}, "moving_mean_initializer": {"class_name": "Zeros", "config": {}}, "scale": true, "beta_regularizer": null, "beta_constraint": null, "epsilon": 0.001, "trainable": true, "axis": -1, "gamma_constraint": null, "name": "batch_normalization_2", "gamma_regularizer": null, "center": true}, "inbound_nodes": [[["conv2d_2", 0, 0, {}]]]}, {"class_name": "Add", "name": "add_2", "config": {"name": "add_2", "trainable": true}, "inbound_nodes": [[["block3_pool", 0, 0, {}], ["batch_normalization_2", 0, 0, {}]]]}, {"class_name": "Activation", "name": "block4_sepconv1_act", "config": {"name": "block4_sepconv1_act", "trainable": true, "activation": "relu"}, "inbound_nodes": [[["add_2", 0, 0, {}]]]}, {"class_name": "SeparableConv2D", "name": "block4_sepconv1", "config": {"padding": "same", "bias_constraint": null, "bias_initializer": {"class_name": "Zeros", "config": {}}, "pointwise_initializer": {"class_name": "VarianceScaling", "config": {"distribution": "uniform", "seed": null, "mode": "fan_avg", "scale": 1.0}}, "activation": "linear", "depthwise_constraint": null, "bias_regularizer": null, "pointwise_regularizer": null, "depthwise_regularizer": null, "filters": 728, "kernel_size": [3, 3], "pointwise_constraint": null, "data_format": "channels_last", "activity_regularizer": null, "trainable": true, "strides": [1, 1], "dilation_rate": [1, 1], "name": "block4_sepconv1", "use_bias": false, "depthwise_initializer": {"class_name": "VarianceScaling", "config": {"distribution": "uniform", "seed": null, "mode": "fan_avg", "scale": 1.0}}, "depth_multiplier": 1}, "inbound_nodes": [[["block4_sepconv1_act", 0, 0, {}]]]}, {"class_name": "BatchNormalization", "name": "block4_sepconv1_bn", "config": {"beta_initializer": {"class_name": "Zeros", "config": {}}, "moving_variance_initializer": {"class_name": "Ones", "config": {}}, "momentum": 0.99, "gamma_initializer": {"class_name": "Ones", "config": {}}, "moving_mean_initializer": {"class_name": "Zeros", "config": {}}, "scale": true, "beta_regularizer": null, "beta_constraint": null, "epsilon": 0.001, "trainable": true, "axis": -1, "gamma_constraint": null, "name": "block4_sepconv1_bn", "gamma_regularizer": null, "center": true}, "inbound_nodes": [[["block4_sepconv1", 0, 0, {}]]]}, {"class_name": "Activation", "name": "block4_sepconv2_act", "config": {"name": "block4_sepconv2_act", "trainable": true, "activation": "relu"}, "inbound_nodes": [[["block4_sepconv1_bn", 0, 0, {}]]]}, {"class_name": "SeparableConv2D", "name": "block4_sepconv2", "config": {"padding": "same", "bias_constraint": null, "bias_initializer": {"class_name": "Zeros", "config": {}}, "pointwise_initializer": {"class_name": "VarianceScaling", "config": {"distribution": "uniform", "seed": null, "mode": "fan_avg", "scale": 1.0}}, "activation": "linear", "depthwise_constraint": null, "bias_regularizer": null, "pointwise_regularizer": null, "depthwise_regularizer": null, "filters": 728, "kernel_size": [3, 3], "pointwise_constraint": null, "data_format": "channels_last", "activity_regularizer": null, "trainable": true, "strides": [1, 1], "dilation_rate": [1, 1], "name": "block4_sepconv2", "use_bias": false, "depthwise_initializer": {"class_name": "VarianceScaling", "config": {"distribution": "uniform", "seed": null, "mode": "fan_avg", "scale": 1.0}}, "depth_multiplier": 1}, "inbound_nodes": [[["block4_sepconv2_act", 0, 0, {}]]]}, {"class_name": "BatchNormalization", "name": "block4_sepconv2_bn", "config": {"beta_initializer": {"class_name": "Zeros", "config": {}}, "moving_variance_initializer": {"class_name": "Ones", "config": {}}, "momentum": 0.99, "gamma_initializer": {"class_name": "Ones", "config": {}}, "moving_mean_initializer": {"class_name": "Zeros", "config": {}}, "scale": true, "beta_regularizer": null, "beta_constraint": null, "epsilon": 0.001, "trainable": true, "axis": -1, "gamma_constraint": null, "name": "block4_sepconv2_bn", "gamma_regularizer": null, "center": true}, "inbound_nodes": [[["block4_sepconv2", 0, 0, {}]]]}, {"class_name": "Conv2D", "name": "conv2d_3", "config": {"padding": "same", "bias_constraint": null, "kernel_regularizer": null, "data_format": "channels_last", "activation": "linear", "name": "conv2d_3", "filters": 728, "kernel_size": [1, 1], "kernel_constraint": null, "strides": [2, 2], "activity_regularizer": null, "trainable": true, "bias_initializer": {"class_name": "Zeros", "config": {}}, "use_bias": false, "bias_regularizer": null, "kernel_initializer": {"class_name": "VarianceScaling", "config": {"distribution": "uniform", "seed": null, "mode": "fan_avg", "scale": 1.0}}, "dilation_rate": [1, 1]}, "inbound_nodes": [[["add_2", 0, 0, {}]]]}, {"class_name": "MaxPooling2D", "name": "block4_pool", "config": {"padding": "same", "strides": [2, 2], "data_format": "channels_last", "trainable": true, "name": "block4_pool", "pool_size": [3, 3]}, "inbound_nodes": [[["block4_sepconv2_bn", 0, 0, {}]]]}, {"class_name": "BatchNormalization", "name": "batch_normalization_3", "config": {"beta_initializer": {"class_name": "Zeros", "config": {}}, "moving_variance_initializer": {"class_name": "Ones", "config": {}}, "momentum": 0.99, "gamma_initializer": {"class_name": "Ones", "config": {}}, "moving_mean_initializer": {"class_name": "Zeros", "config": {}}, "scale": true, "beta_regularizer": null, "beta_constraint": null, "epsilon": 0.001, "trainable": true, "axis": -1, "gamma_constraint": null, "name": "batch_normalization_3", "gamma_regularizer": null, "center": true}, "inbound_nodes": [[["conv2d_3", 0, 0, {}]]]}, {"class_name": "Add", "name": "add_3", "config": {"name": "add_3", "trainable": true}, "inbound_nodes": [[["block4_pool", 0, 0, {}], ["batch_normalization_3", 0, 0, {}]]]}, {"class_name": "Activation", "name": "block5_sepconv1_act", "config": {"name": "block5_sepconv1_act", "trainable": true, "activation": "relu"}, "inbound_nodes": [[["add_3", 0, 0, {}]]]}, {"class_name": "SeparableConv2D", "name": "block5_sepconv1", "config": {"padding": "same", "bias_constraint": null, "bias_initializer": {"class_name": "Zeros", "config": {}}, "pointwise_initializer": {"class_name": "VarianceScaling", "config": {"distribution": "uniform", "seed": null, "mode": "fan_avg", "scale": 1.0}}, "activation": "linear", "depthwise_constraint": null, "bias_regularizer": null, "pointwise_regularizer": null, "depthwise_regularizer": null, "filters": 728, "kernel_size": [3, 3], "pointwise_constraint": null, "data_format": "channels_last", "activity_regularizer": null, "trainable": true, "strides": [1, 1], "dilation_rate": [1, 1], "name": "block5_sepconv1", "use_bias": false, "depthwise_initializer": {"class_name": "VarianceScaling", "config": {"distribution": "uniform", "seed": null, "mode": "fan_avg", "scale": 1.0}}, "depth_multiplier": 1}, "inbound_nodes": [[["block5_sepconv1_act", 0, 0, {}]]]}, {"class_name": "BatchNormalization", "name": "block5_sepconv1_bn", "config": {"beta_initializer": {"class_name": "Zeros", "config": {}}, "moving_variance_initializer": {"class_name": "Ones", "config": {}}, "momentum": 0.99, "gamma_initializer": {"class_name": "Ones", "config": {}}, "moving_mean_initializer": {"class_name": "Zeros", "config": {}}, "scale": true, "beta_regularizer": null, "beta_constraint": null, "epsilon": 0.001, "trainable": true, "axis": -1, "gamma_constraint": null, "name": "block5_sepconv1_bn", "gamma_regularizer": null, "center": true}, "inbound_nodes": [[["block5_sepconv1", 0, 0, {}]]]}, {"class_name": "Activation", "name": "block5_sepconv2_act", "config": {"name": "block5_sepconv2_act", "trainable": true, "activation": "relu"}, "inbound_nodes": [[["block5_sepconv1_bn", 0, 0, {}]]]}, {"class_name": "SeparableConv2D", "name": "block5_sepconv2", "config": {"padding": "same", "bias_constraint": null, "bias_initializer": {"class_name": "Zeros", "config": {}}, "pointwise_initializer": {"class_name": "VarianceScaling", "config": {"distribution": "uniform", "seed": null, "mode": "fan_avg", "scale": 1.0}}, "activation": "linear", "depthwise_constraint": null, "bias_regularizer": null, "pointwise_regularizer": null, "depthwise_regularizer": null, "filters": 728, "kernel_size": [3, 3], "pointwise_constraint": null, "data_format": "channels_last", "activity_regularizer": null, "trainable": true, "strides": [1, 1], "dilation_rate": [1, 1], "name": "block5_sepconv2", "use_bias": false, "depthwise_initializer": {"class_name": "VarianceScaling", "config": {"distribution": "uniform", "seed": null, "mode": "fan_avg", "scale": 1.0}}, "depth_multiplier": 1}, "inbound_nodes": [[["block5_sepconv2_act", 0, 0, {}]]]}, {"class_name": "BatchNormalization", "name": "block5_sepconv2_bn", "config": {"beta_initializer": {"class_name": "Zeros", "config": {}}, "moving_variance_initializer": {"class_name": "Ones", "config": {}}, "momentum": 0.99, "gamma_initializer": {"class_name": "Ones", "config": {}}, "moving_mean_initializer": {"class_name": "Zeros", "config": {}}, "scale": true, "beta_regularizer": null, "beta_constraint": null, "epsilon": 0.001, "trainable": true, "axis": -1, "gamma_constraint": null, "name": "block5_sepconv2_bn", "gamma_regularizer": null, "center": true}, "inbound_nodes": [[["block5_sepconv2", 0, 0, {}]]]}, {"class_name": "Activation", "name": "block5_sepconv3_act", "config": {"name": "block5_sepconv3_act", "trainable": true, "activation": "relu"}, "inbound_nodes": [[["block5_sepconv2_bn", 0, 0, {}]]]}, {"class_name": "SeparableConv2D", "name": "block5_sepconv3", "config": {"padding": "same", "bias_constraint": null, "bias_initializer": {"class_name": "Zeros", "config": {}}, "pointwise_initializer": {"class_name": "VarianceScaling", "config": {"distribution": "uniform", "seed": null, "mode": "fan_avg", "scale": 1.0}}, "activation": "linear", "depthwise_constraint": null, "bias_regularizer": null, "pointwise_regularizer": null, "depthwise_regularizer": null, "filters": 728, "kernel_size": [3, 3], "pointwise_constraint": null, "data_format": "channels_last", "activity_regularizer": null, "trainable": true, "strides": [1, 1], "dilation_rate": [1, 1], "name": "block5_sepconv3", "use_bias": false, "depthwise_initializer": {"class_name": "VarianceScaling", "config": {"distribution": "uniform", "seed": null, "mode": "fan_avg", "scale": 1.0}}, "depth_multiplier": 1}, "inbound_nodes": [[["block5_sepconv3_act", 0, 0, {}]]]}, {"class_name": "BatchNormalization", "name": "block5_sepconv3_bn", "config": {"beta_initializer": {"class_name": "Zeros", "config": {}}, "moving_variance_initializer": {"class_name": "Ones", "config": {}}, "momentum": 0.99, "gamma_initializer": {"class_name": "Ones", "config": {}}, "moving_mean_initializer": {"class_name": "Zeros", "config": {}}, "scale": true, "beta_regularizer": null, "beta_constraint": null, "epsilon": 0.001, "trainable": true, "axis": -1, "gamma_constraint": null, "name": "block5_sepconv3_bn", "gamma_regularizer": null, "center": true}, "inbound_nodes": [[["block5_sepconv3", 0, 0, {}]]]}, {"class_name": "Add", "name": "add_4", "config": {"name": "add_4", "trainable": true}, "inbound_nodes": [[["block5_sepconv3_bn", 0, 0, {}], ["add_3", 0, 0, {}]]]}, {"class_name": "Activation", "name": "block6_sepconv1_act", "config": {"name": "block6_sepconv1_act", "trainable": true, "activation": "relu"}, "inbound_nodes": [[["add_4", 0, 0, {}]]]}, {"class_name": "SeparableConv2D", "name": "block6_sepconv1", "config": {"padding": "same", "bias_constraint": null, "bias_initializer": {"class_name": "Zeros", "config": {}}, "pointwise_initializer": {"class_name": "VarianceScaling", "config": {"distribution": "uniform", "seed": null, "mode": "fan_avg", "scale": 1.0}}, "activation": "linear", "depthwise_constraint": null, "bias_regularizer": null, "pointwise_regularizer": null, "depthwise_regularizer": null, "filters": 728, "kernel_size": [3, 3], "pointwise_constraint": null, "data_format": "channels_last", "activity_regularizer": null, "trainable": true, "strides": [1, 1], "dilation_rate": [1, 1], "name": "block6_sepconv1", "use_bias": false, "depthwise_initializer": {"class_name": "VarianceScaling", "config": {"distribution": "uniform", "seed": null, "mode": "fan_avg", "scale": 1.0}}, "depth_multiplier": 1}, "inbound_nodes": [[["block6_sepconv1_act", 0, 0, {}]]]}, {"class_name": "BatchNormalization", "name": "block6_sepconv1_bn", "config": {"beta_initializer": {"class_name": "Zeros", "config": {}}, "moving_variance_initializer": {"class_name": "Ones", "config": {}}, "momentum": 0.99, "gamma_initializer": {"class_name": "Ones", "config": {}}, "moving_mean_initializer": {"class_name": "Zeros", "config": {}}, "scale": true, "beta_regularizer": null, "beta_constraint": null, "epsilon": 0.001, "trainable": true, "axis": -1, "gamma_constraint": null, "name": "block6_sepconv1_bn", "gamma_regularizer": null, "center": true}, "inbound_nodes": [[["block6_sepconv1", 0, 0, {}]]]}, {"class_name": "Activation", "name": "block6_sepconv2_act", "config": {"name": "block6_sepconv2_act", "trainable": true, "activation": "relu"}, "inbound_nodes": [[["block6_sepconv1_bn", 0, 0, {}]]]}, {"class_name": "SeparableConv2D", "name": "block6_sepconv2", "config": {"padding": "same", "bias_constraint": null, "bias_initializer": {"class_name": "Zeros", "config": {}}, "pointwise_initializer": {"class_name": "VarianceScaling", "config": {"distribution": "uniform", "seed": null, "mode": "fan_avg", "scale": 1.0}}, "activation": "linear", "depthwise_constraint": null, "bias_regularizer": null, "pointwise_regularizer": null, "depthwise_regularizer": null, "filters": 728, "kernel_size": [3, 3], "pointwise_constraint": null, "data_format": "channels_last", "activity_regularizer": null, "trainable": true, "strides": [1, 1], "dilation_rate": [1, 1], "name": "block6_sepconv2", "use_bias": false, "depthwise_initializer": {"class_name": "VarianceScaling", "config": {"distribution": "uniform", "seed": null, "mode": "fan_avg", "scale": 1.0}}, "depth_multiplier": 1}, "inbound_nodes": [[["block6_sepconv2_act", 0, 0, {}]]]}, {"class_name": "BatchNormalization", "name": "block6_sepconv2_bn", "config": {"beta_initializer": {"class_name": "Zeros", "config": {}}, "moving_variance_initializer": {"class_name": "Ones", "config": {}}, "momentum": 0.99, "gamma_initializer": {"class_name": "Ones", "config": {}}, "moving_mean_initializer": {"class_name": "Zeros", "config": {}}, "scale": true, "beta_regularizer": null, "beta_constraint": null, "epsilon": 0.001, "trainable": true, "axis": -1, "gamma_constraint": null, "name": "block6_sepconv2_bn", "gamma_regularizer": null, "center": true}, "inbound_nodes": [[["block6_sepconv2", 0, 0, {}]]]}, {"class_name": "Activation", "name": "block6_sepconv3_act", "config": {"name": "block6_sepconv3_act", "trainable": true, "activation": "relu"}, "inbound_nodes": [[["block6_sepconv2_bn", 0, 0, {}]]]}, {"class_name": "SeparableConv2D", "name": "block6_sepconv3", "config": {"padding": "same", "bias_constraint": null, "bias_initializer": {"class_name": "Zeros", "config": {}}, "pointwise_initializer": {"class_name": "VarianceScaling", "config": {"distribution": "uniform", "seed": null, "mode": "fan_avg", "scale": 1.0}}, "activation": "linear", "depthwise_constraint": null, "bias_regularizer": null, "pointwise_regularizer": null, "depthwise_regularizer": null, "filters": 728, "kernel_size": [3, 3], "pointwise_constraint": null, "data_format": "channels_last", "activity_regularizer": null, "trainable": true, "strides": [1, 1], "dilation_rate": [1, 1], "name": "block6_sepconv3", "use_bias": false, "depthwise_initializer": {"class_name": "VarianceScaling", "config": {"distribution": "uniform", "seed": null, "mode": "fan_avg", "scale": 1.0}}, "depth_multiplier": 1}, "inbound_nodes": [[["block6_sepconv3_act", 0, 0, {}]]]}, {"class_name": "BatchNormalization", "name": "block6_sepconv3_bn", "config": {"beta_initializer": {"class_name": "Zeros", "config": {}}, "moving_variance_initializer": {"class_name": "Ones", "config": {}}, "momentum": 0.99, "gamma_initializer": {"class_name": "Ones", "config": {}}, "moving_mean_initializer": {"class_name": "Zeros", "config": {}}, "scale": true, "beta_regularizer": null, "beta_constraint": null, "epsilon": 0.001, "trainable": true, "axis": -1, "gamma_constraint": null, "name": "block6_sepconv3_bn", "gamma_regularizer": null, "center": true}, "inbound_nodes": [[["block6_sepconv3", 0, 0, {}]]]}, {"class_name": "Add", "name": "add_5", "config": {"name": "add_5", "trainable": true}, "inbound_nodes": [[["block6_sepconv3_bn", 0, 0, {}], ["add_4", 0, 0, {}]]]}, {"class_name": "Activation", "name": "block7_sepconv1_act", "config": {"name": "block7_sepconv1_act", "trainable": true, "activation": "relu"}, "inbound_nodes": [[["add_5", 0, 0, {}]]]}, {"class_name": "SeparableConv2D", "name": "block7_sepconv1", "config": {"padding": "same", "bias_constraint": null, "bias_initializer": {"class_name": "Zeros", "config": {}}, "pointwise_initializer": {"class_name": "VarianceScaling", "config": {"distribution": "uniform", "seed": null, "mode": "fan_avg", "scale": 1.0}}, "activation": "linear", "depthwise_constraint": null, "bias_regularizer": null, "pointwise_regularizer": null, "depthwise_regularizer": null, "filters": 728, "kernel_size": [3, 3], "pointwise_constraint": null, "data_format": "channels_last", "activity_regularizer": null, "trainable": true, "strides": [1, 1], "dilation_rate": [1, 1], "name": "block7_sepconv1", "use_bias": false, "depthwise_initializer": {"class_name": "VarianceScaling", "config": {"distribution": "uniform", "seed": null, "mode": "fan_avg", "scale": 1.0}}, "depth_multiplier": 1}, "inbound_nodes": [[["block7_sepconv1_act", 0, 0, {}]]]}, {"class_name": "BatchNormalization", "name": "block7_sepconv1_bn", "config": {"beta_initializer": {"class_name": "Zeros", "config": {}}, "moving_variance_initializer": {"class_name": "Ones", "config": {}}, "momentum": 0.99, "gamma_initializer": {"class_name": "Ones", "config": {}}, "moving_mean_initializer": {"class_name": "Zeros", "config": {}}, "scale": true, "beta_regularizer": null, "beta_constraint": null, "epsilon": 0.001, "trainable": true, "axis": -1, "gamma_constraint": null, "name": "block7_sepconv1_bn", "gamma_regularizer": null, "center": true}, "inbound_nodes": [[["block7_sepconv1", 0, 0, {}]]]}, {"class_name": "Activation", "name": "block7_sepconv2_act", "config": {"name": "block7_sepconv2_act", "trainable": true, "activation": "relu"}, "inbound_nodes": [[["block7_sepconv1_bn", 0, 0, {}]]]}, {"class_name": "SeparableConv2D", "name": "block7_sepconv2", "config": {"padding": "same", "bias_constraint": null, "bias_initializer": {"class_name": "Zeros", "config": {}}, "pointwise_initializer": {"class_name": "VarianceScaling", "config": {"distribution": "uniform", "seed": null, "mode": "fan_avg", "scale": 1.0}}, "activation": "linear", "depthwise_constraint": null, "bias_regularizer": null, "pointwise_regularizer": null, "depthwise_regularizer": null, "filters": 728, "kernel_size": [3, 3], "pointwise_constraint": null, "data_format": "channels_last", "activity_regularizer": null, "trainable": true, "strides": [1, 1], "dilation_rate": [1, 1], "name": "block7_sepconv2", "use_bias": false, "depthwise_initializer": {"class_name": "VarianceScaling", "config": {"distribution": "uniform", "seed": null, "mode": "fan_avg", "scale": 1.0}}, "depth_multiplier": 1}, "inbound_nodes": [[["block7_sepconv2_act", 0, 0, {}]]]}, {"class_name": "BatchNormalization", "name": "block7_sepconv2_bn", "config": {"beta_initializer": {"class_name": "Zeros", "config": {}}, "moving_variance_initializer": {"class_name": "Ones", "config": {}}, "momentum": 0.99, "gamma_initializer": {"class_name": "Ones", "config": {}}, "moving_mean_initializer": {"class_name": "Zeros", "config": {}}, "scale": true, "beta_regularizer": null, "beta_constraint": null, "epsilon": 0.001, "trainable": true, "axis": -1, "gamma_constraint": null, "name": "block7_sepconv2_bn", "gamma_regularizer": null, "center": true}, "inbound_nodes": [[["block7_sepconv2", 0, 0, {}]]]}, {"class_name": "Activation", "name": "block7_sepconv3_act", "config": {"name": "block7_sepconv3_act", "trainable": true, "activation": "relu"}, "inbound_nodes": [[["block7_sepconv2_bn", 0, 0, {}]]]}, {"class_name": "SeparableConv2D", "name": "block7_sepconv3", "config": {"padding": "same", "bias_constraint": null, "bias_initializer": {"class_name": "Zeros", "config": {}}, "pointwise_initializer": {"class_name": "VarianceScaling", "config": {"distribution": "uniform", "seed": null, "mode": "fan_avg", "scale": 1.0}}, "activation": "linear", "depthwise_constraint": null, "bias_regularizer": null, "pointwise_regularizer": null, "depthwise_regularizer": null, "filters": 728, "kernel_size": [3, 3], "pointwise_constraint": null, "data_format": "channels_last", "activity_regularizer": null, "trainable": true, "strides": [1, 1], "dilation_rate": [1, 1], "name": "block7_sepconv3", "use_bias": false, "depthwise_initializer": {"class_name": "VarianceScaling", "config": {"distribution": "uniform", "seed": null, "mode": "fan_avg", "scale": 1.0}}, "depth_multiplier": 1}, "inbound_nodes": [[["block7_sepconv3_act", 0, 0, {}]]]}, {"class_name": "BatchNormalization", "name": "block7_sepconv3_bn", "config": {"beta_initializer": {"class_name": "Zeros", "config": {}}, "moving_variance_initializer": {"class_name": "Ones", "config": {}}, "momentum": 0.99, "gamma_initializer": {"class_name": "Ones", "config": {}}, "moving_mean_initializer": {"class_name": "Zeros", "config": {}}, "scale": true, "beta_regularizer": null, "beta_constraint": null, "epsilon": 0.001, "trainable": true, "axis": -1, "gamma_constraint": null, "name": "block7_sepconv3_bn", "gamma_regularizer": null, "center": true}, "inbound_nodes": [[["block7_sepconv3", 0, 0, {}]]]}, {"class_name": "Add", "name": "add_6", "config": {"name": "add_6", "trainable": true}, "inbound_nodes": [[["block7_sepconv3_bn", 0, 0, {}], ["add_5", 0, 0, {}]]]}, {"class_name": "Activation", "name": "block8_sepconv1_act", "config": {"name": "block8_sepconv1_act", "trainable": true, "activation": "relu"}, "inbound_nodes": [[["add_6", 0, 0, {}]]]}, {"class_name": "SeparableConv2D", "name": "block8_sepconv1", "config": {"padding": "same", "bias_constraint": null, "bias_initializer": {"class_name": "Zeros", "config": {}}, "pointwise_initializer": {"class_name": "VarianceScaling", "config": {"distribution": "uniform", "seed": null, "mode": "fan_avg", "scale": 1.0}}, "activation": "linear", "depthwise_constraint": null, "bias_regularizer": null, "pointwise_regularizer": null, "depthwise_regularizer": null, "filters": 728, "kernel_size": [3, 3], "pointwise_constraint": null, "data_format": "channels_last", "activity_regularizer": null, "trainable": true, "strides": [1, 1], "dilation_rate": [1, 1], "name": "block8_sepconv1", "use_bias": false, "depthwise_initializer": {"class_name": "VarianceScaling", "config": {"distribution": "uniform", "seed": null, "mode": "fan_avg", "scale": 1.0}}, "depth_multiplier": 1}, "inbound_nodes": [[["block8_sepconv1_act", 0, 0, {}]]]}, {"class_name": "BatchNormalization", "name": "block8_sepconv1_bn", "config": {"beta_initializer": {"class_name": "Zeros", "config": {}}, "moving_variance_initializer": {"class_name": "Ones", "config": {}}, "momentum": 0.99, "gamma_initializer": {"class_name": "Ones", "config": {}}, "moving_mean_initializer": {"class_name": "Zeros", "config": {}}, "scale": true, "beta_regularizer": null, "beta_constraint": null, "epsilon": 0.001, "trainable": true, "axis": -1, "gamma_constraint": null, "name": "block8_sepconv1_bn", "gamma_regularizer": null, "center": true}, "inbound_nodes": [[["block8_sepconv1", 0, 0, {}]]]}, {"class_name": "Activation", "name": "block8_sepconv2_act", "config": {"name": "block8_sepconv2_act", "trainable": true, "activation": "relu"}, "inbound_nodes": [[["block8_sepconv1_bn", 0, 0, {}]]]}, {"class_name": "SeparableConv2D", "name": "block8_sepconv2", "config": {"padding": "same", "bias_constraint": null, "bias_initializer": {"class_name": "Zeros", "config": {}}, "pointwise_initializer": {"class_name": "VarianceScaling", "config": {"distribution": "uniform", "seed": null, "mode": "fan_avg", "scale": 1.0}}, "activation": "linear", "depthwise_constraint": null, "bias_regularizer": null, "pointwise_regularizer": null, "depthwise_regularizer": null, "filters": 728, "kernel_size": [3, 3], "pointwise_constraint": null, "data_format": "channels_last", "activity_regularizer": null, "trainable": true, "strides": [1, 1], "dilation_rate": [1, 1], "name": "block8_sepconv2", "use_bias": false, "depthwise_initializer": {"class_name": "VarianceScaling", "config": {"distribution": "uniform", "seed": null, "mode": "fan_avg", "scale": 1.0}}, "depth_multiplier": 1}, "inbound_nodes": [[["block8_sepconv2_act", 0, 0, {}]]]}, {"class_name": "BatchNormalization", "name": "block8_sepconv2_bn", "config": {"beta_initializer": {"class_name": "Zeros", "config": {}}, "moving_variance_initializer": {"class_name": "Ones", "config": {}}, "momentum": 0.99, "gamma_initializer": {"class_name": "Ones", "config": {}}, "moving_mean_initializer": {"class_name": "Zeros", "config": {}}, "scale": true, "beta_regularizer": null, "beta_constraint": null, "epsilon": 0.001, "trainable": true, "axis": -1, "gamma_constraint": null, "name": "block8_sepconv2_bn", "gamma_regularizer": null, "center": true}, "inbound_nodes": [[["block8_sepconv2", 0, 0, {}]]]}, {"class_name": "Activation", "name": "block8_sepconv3_act", "config": {"name": "block8_sepconv3_act", "trainable": true, "activation": "relu"}, "inbound_nodes": [[["block8_sepconv2_bn", 0, 0, {}]]]}, {"class_name": "SeparableConv2D", "name": "block8_sepconv3", "config": {"padding": "same", "bias_constraint": null, "bias_initializer": {"class_name": "Zeros", "config": {}}, "pointwise_initializer": {"class_name": "VarianceScaling", "config": {"distribution": "uniform", "seed": null, "mode": "fan_avg", "scale": 1.0}}, "activation": "linear", "depthwise_constraint": null, "bias_regularizer": null, "pointwise_regularizer": null, "depthwise_regularizer": null, "filters": 728, "kernel_size": [3, 3], "pointwise_constraint": null, "data_format": "channels_last", "activity_regularizer": null, "trainable": true, "strides": [1, 1], "dilation_rate": [1, 1], "name": "block8_sepconv3", "use_bias": false, "depthwise_initializer": {"class_name": "VarianceScaling", "config": {"distribution": "uniform", "seed": null, "mode": "fan_avg", "scale": 1.0}}, "depth_multiplier": 1}, "inbound_nodes": [[["block8_sepconv3_act", 0, 0, {}]]]}, {"class_name": "BatchNormalization", "name": "block8_sepconv3_bn", "config": {"beta_initializer": {"class_name": "Zeros", "config": {}}, "moving_variance_initializer": {"class_name": "Ones", "config": {}}, "momentum": 0.99, "gamma_initializer": {"class_name": "Ones", "config": {}}, "moving_mean_initializer": {"class_name": "Zeros", "config": {}}, "scale": true, "beta_regularizer": null, "beta_constraint": null, "epsilon": 0.001, "trainable": true, "axis": -1, "gamma_constraint": null, "name": "block8_sepconv3_bn", "gamma_regularizer": null, "center": true}, "inbound_nodes": [[["block8_sepconv3", 0, 0, {}]]]}, {"class_name": "Add", "name": "add_7", "config": {"name": "add_7", "trainable": true}, "inbound_nodes": [[["block8_sepconv3_bn", 0, 0, {}], ["add_6", 0, 0, {}]]]}, {"class_name": "Activation", "name": "block9_sepconv1_act", "config": {"name": "block9_sepconv1_act", "trainable": true, "activation": "relu"}, "inbound_nodes": [[["add_7", 0, 0, {}]]]}, {"class_name": "SeparableConv2D", "name": "block9_sepconv1", "config": {"padding": "same", "bias_constraint": null, "bias_initializer": {"class_name": "Zeros", "config": {}}, "pointwise_initializer": {"class_name": "VarianceScaling", "config": {"distribution": "uniform", "seed": null, "mode": "fan_avg", "scale": 1.0}}, "activation": "linear", "depthwise_constraint": null, "bias_regularizer": null, "pointwise_regularizer": null, "depthwise_regularizer": null, "filters": 728, "kernel_size": [3, 3], "pointwise_constraint": null, "data_format": "channels_last", "activity_regularizer": null, "trainable": true, "strides": [1, 1], "dilation_rate": [1, 1], "name": "block9_sepconv1", "use_bias": false, "depthwise_initializer": {"class_name": "VarianceScaling", "config": {"distribution": "uniform", "seed": null, "mode": "fan_avg", "scale": 1.0}}, "depth_multiplier": 1}, "inbound_nodes": [[["block9_sepconv1_act", 0, 0, {}]]]}, {"class_name": "BatchNormalization", "name": "block9_sepconv1_bn", "config": {"beta_initializer": {"class_name": "Zeros", "config": {}}, "moving_variance_initializer": {"class_name": "Ones", "config": {}}, "momentum": 0.99, "gamma_initializer": {"class_name": "Ones", "config": {}}, "moving_mean_initializer": {"class_name": "Zeros", "config": {}}, "scale": true, "beta_regularizer": null, "beta_constraint": null, "epsilon": 0.001, "trainable": true, "axis": -1, "gamma_constraint": null, "name": "block9_sepconv1_bn", "gamma_regularizer": null, "center": true}, "inbound_nodes": [[["block9_sepconv1", 0, 0, {}]]]}, {"class_name": "Activation", "name": "block9_sepconv2_act", "config": {"name": "block9_sepconv2_act", "trainable": true, "activation": "relu"}, "inbound_nodes": [[["block9_sepconv1_bn", 0, 0, {}]]]}, {"class_name": "SeparableConv2D", "name": "block9_sepconv2", "config": {"padding": "same", "bias_constraint": null, "bias_initializer": {"class_name": "Zeros", "config": {}}, "pointwise_initializer": {"class_name": "VarianceScaling", "config": {"distribution": "uniform", "seed": null, "mode": "fan_avg", "scale": 1.0}}, "activation": "linear", "depthwise_constraint": null, "bias_regularizer": null, "pointwise_regularizer": null, "depthwise_regularizer": null, "filters": 728, "kernel_size": [3, 3], "pointwise_constraint": null, "data_format": "channels_last", "activity_regularizer": null, "trainable": true, "strides": [1, 1], "dilation_rate": [1, 1], "name": "block9_sepconv2", "use_bias": false, "depthwise_initializer": {"class_name": "VarianceScaling", "config": {"distribution": "uniform", "seed": null, "mode": "fan_avg", "scale": 1.0}}, "depth_multiplier": 1}, "inbound_nodes": [[["block9_sepconv2_act", 0, 0, {}]]]}, {"class_name": "BatchNormalization", "name": "block9_sepconv2_bn", "config": {"beta_initializer": {"class_name": "Zeros", "config": {}}, "moving_variance_initializer": {"class_name": "Ones", "config": {}}, "momentum": 0.99, "gamma_initializer": {"class_name": "Ones", "config": {}}, "moving_mean_initializer": {"class_name": "Zeros", "config": {}}, "scale": true, "beta_regularizer": null, "beta_constraint": null, "epsilon": 0.001, "trainable": true, "axis": -1, "gamma_constraint": null, "name": "block9_sepconv2_bn", "gamma_regularizer": null, "center": true}, "inbound_nodes": [[["block9_sepconv2", 0, 0, {}]]]}, {"class_name": "Activation", "name": "block9_sepconv3_act", "config": {"name": "block9_sepconv3_act", "trainable": true, "activation": "relu"}, "inbound_nodes": [[["block9_sepconv2_bn", 0, 0, {}]]]}, {"class_name": "SeparableConv2D", "name": "block9_sepconv3", "config": {"padding": "same", "bias_constraint": null, "bias_initializer": {"class_name": "Zeros", "config": {}}, "pointwise_initializer": {"class_name": "VarianceScaling", "config": {"distribution": "uniform", "seed": null, "mode": "fan_avg", "scale": 1.0}}, "activation": "linear", "depthwise_constraint": null, "bias_regularizer": null, "pointwise_regularizer": null, "depthwise_regularizer": null, "filters": 728, "kernel_size": [3, 3], "pointwise_constraint": null, "data_format": "channels_last", "activity_regularizer": null, "trainable": true, "strides": [1, 1], "dilation_rate": [1, 1], "name": "block9_sepconv3", "use_bias": false, "depthwise_initializer": {"class_name": "VarianceScaling", "config": {"distribution": "uniform", "seed": null, "mode": "fan_avg", "scale": 1.0}}, "depth_multiplier": 1}, "inbound_nodes": [[["block9_sepconv3_act", 0, 0, {}]]]}, {"class_name": "BatchNormalization", "name": "block9_sepconv3_bn", "config": {"beta_initializer": {"class_name": "Zeros", "config": {}}, "moving_variance_initializer": {"class_name": "Ones", "config": {}}, "momentum": 0.99, "gamma_initializer": {"class_name": "Ones", "config": {}}, "moving_mean_initializer": {"class_name": "Zeros", "config": {}}, "scale": true, "beta_regularizer": null, "beta_constraint": null, "epsilon": 0.001, "trainable": true, "axis": -1, "gamma_constraint": null, "name": "block9_sepconv3_bn", "gamma_regularizer": null, "center": true}, "inbound_nodes": [[["block9_sepconv3", 0, 0, {}]]]}, {"class_name": "Add", "name": "add_8", "config": {"name": "add_8", "trainable": true}, "inbound_nodes": [[["block9_sepconv3_bn", 0, 0, {}], ["add_7", 0, 0, {}]]]}, {"class_name": "Activation", "name": "block10_sepconv1_act", "config": {"name": "block10_sepconv1_act", "trainable": true, "activation": "relu"}, "inbound_nodes": [[["add_8", 0, 0, {}]]]}, {"class_name": "SeparableConv2D", "name": "block10_sepconv1", "config": {"padding": "same", "bias_constraint": null, "bias_initializer": {"class_name": "Zeros", "config": {}}, "pointwise_initializer": {"class_name": "VarianceScaling", "config": {"distribution": "uniform", "seed": null, "mode": "fan_avg", "scale": 1.0}}, "activation": "linear", "depthwise_constraint": null, "bias_regularizer": null, "pointwise_regularizer": null, "depthwise_regularizer": null, "filters": 728, "kernel_size": [3, 3], "pointwise_constraint": null, "data_format": "channels_last", "activity_regularizer": null, "trainable": true, "strides": [1, 1], "dilation_rate": [1, 1], "name": "block10_sepconv1", "use_bias": false, "depthwise_initializer": {"class_name": "VarianceScaling", "config": {"distribution": "uniform", "seed": null, "mode": "fan_avg", "scale": 1.0}}, "depth_multiplier": 1}, "inbound_nodes": [[["block10_sepconv1_act", 0, 0, {}]]]}, {"class_name": "BatchNormalization", "name": "block10_sepconv1_bn", "config": {"beta_initializer": {"class_name": "Zeros", "config": {}}, "moving_variance_initializer": {"class_name": "Ones", "config": {}}, "momentum": 0.99, "gamma_initializer": {"class_name": "Ones", "config": {}}, "moving_mean_initializer": {"class_name": "Zeros", "config": {}}, "scale": true, "beta_regularizer": null, "beta_constraint": null, "epsilon": 0.001, "trainable": true, "axis": -1, "gamma_constraint": null, "name": "block10_sepconv1_bn", "gamma_regularizer": null, "center": true}, "inbound_nodes": [[["block10_sepconv1", 0, 0, {}]]]}, {"class_name": "Activation", "name": "block10_sepconv2_act", "config": {"name": "block10_sepconv2_act", "trainable": true, "activation": "relu"}, "inbound_nodes": [[["block10_sepconv1_bn", 0, 0, {}]]]}, {"class_name": "SeparableConv2D", "name": "block10_sepconv2", "config": {"padding": "same", "bias_constraint": null, "bias_initializer": {"class_name": "Zeros", "config": {}}, "pointwise_initializer": {"class_name": "VarianceScaling", "config": {"distribution": "uniform", "seed": null, "mode": "fan_avg", "scale": 1.0}}, "activation": "linear", "depthwise_constraint": null, "bias_regularizer": null, "pointwise_regularizer": null, "depthwise_regularizer": null, "filters": 728, "kernel_size": [3, 3], "pointwise_constraint": null, "data_format": "channels_last", "activity_regularizer": null, "trainable": true, "strides": [1, 1], "dilation_rate": [1, 1], "name": "block10_sepconv2", "use_bias": false, "depthwise_initializer": {"class_name": "VarianceScaling", "config": {"distribution": "uniform", "seed": null, "mode": "fan_avg", "scale": 1.0}}, "depth_multiplier": 1}, "inbound_nodes": [[["block10_sepconv2_act", 0, 0, {}]]]}, {"class_name": "BatchNormalization", "name": "block10_sepconv2_bn", "config": {"beta_initializer": {"class_name": "Zeros", "config": {}}, "moving_variance_initializer": {"class_name": "Ones", "config": {}}, "momentum": 0.99, "gamma_initializer": {"class_name": "Ones", "config": {}}, "moving_mean_initializer": {"class_name": "Zeros", "config": {}}, "scale": true, "beta_regularizer": null, "beta_constraint": null, "epsilon": 0.001, "trainable": true, "axis": -1, "gamma_constraint": null, "name": "block10_sepconv2_bn", "gamma_regularizer": null, "center": true}, "inbound_nodes": [[["block10_sepconv2", 0, 0, {}]]]}, {"class_name": "Activation", "name": "block10_sepconv3_act", "config": {"name": "block10_sepconv3_act", "trainable": true, "activation": "relu"}, "inbound_nodes": [[["block10_sepconv2_bn", 0, 0, {}]]]}, {"class_name": "SeparableConv2D", "name": "block10_sepconv3", "config": {"padding": "same", "bias_constraint": null, "bias_initializer": {"class_name": "Zeros", "config": {}}, "pointwise_initializer": {"class_name": "VarianceScaling", "config": {"distribution": "uniform", "seed": null, "mode": "fan_avg", "scale": 1.0}}, "activation": "linear", "depthwise_constraint": null, "bias_regularizer": null, "pointwise_regularizer": null, "depthwise_regularizer": null, "filters": 728, "kernel_size": [3, 3], "pointwise_constraint": null, "data_format": "channels_last", "activity_regularizer": null, "trainable": true, "strides": [1, 1], "dilation_rate": [1, 1], "name": "block10_sepconv3", "use_bias": false, "depthwise_initializer": {"class_name": "VarianceScaling", "config": {"distribution": "uniform", "seed": null, "mode": "fan_avg", "scale": 1.0}}, "depth_multiplier": 1}, "inbound_nodes": [[["block10_sepconv3_act", 0, 0, {}]]]}, {"class_name": "BatchNormalization", "name": "block10_sepconv3_bn", "config": {"beta_initializer": {"class_name": "Zeros", "config": {}}, "moving_variance_initializer": {"class_name": "Ones", "config": {}}, "momentum": 0.99, "gamma_initializer": {"class_name": "Ones", "config": {}}, "moving_mean_initializer": {"class_name": "Zeros", "config": {}}, "scale": true, "beta_regularizer": null, "beta_constraint": null, "epsilon": 0.001, "trainable": true, "axis": -1, "gamma_constraint": null, "name": "block10_sepconv3_bn", "gamma_regularizer": null, "center": true}, "inbound_nodes": [[["block10_sepconv3", 0, 0, {}]]]}, {"class_name": "Add", "name": "add_9", "config": {"name": "add_9", "trainable": true}, "inbound_nodes": [[["block10_sepconv3_bn", 0, 0, {}], ["add_8", 0, 0, {}]]]}, {"class_name": "Activation", "name": "block11_sepconv1_act", "config": {"name": "block11_sepconv1_act", "trainable": true, "activation": "relu"}, "inbound_nodes": [[["add_9", 0, 0, {}]]]}, {"class_name": "SeparableConv2D", "name": "block11_sepconv1", "config": {"padding": "same", "bias_constraint": null, "bias_initializer": {"class_name": "Zeros", "config": {}}, "pointwise_initializer": {"class_name": "VarianceScaling", "config": {"distribution": "uniform", "seed": null, "mode": "fan_avg", "scale": 1.0}}, "activation": "linear", "depthwise_constraint": null, "bias_regularizer": null, "pointwise_regularizer": null, "depthwise_regularizer": null, "filters": 728, "kernel_size": [3, 3], "pointwise_constraint": null, "data_format": "channels_last", "activity_regularizer": null, "trainable": true, "strides": [1, 1], "dilation_rate": [1, 1], "name": "block11_sepconv1", "use_bias": false, "depthwise_initializer": {"class_name": "VarianceScaling", "config": {"distribution": "uniform", "seed": null, "mode": "fan_avg", "scale": 1.0}}, "depth_multiplier": 1}, "inbound_nodes": [[["block11_sepconv1_act", 0, 0, {}]]]}, {"class_name": "BatchNormalization", "name": "block11_sepconv1_bn", "config": {"beta_initializer": {"class_name": "Zeros", "config": {}}, "moving_variance_initializer": {"class_name": "Ones", "config": {}}, "momentum": 0.99, "gamma_initializer": {"class_name": "Ones", "config": {}}, "moving_mean_initializer": {"class_name": "Zeros", "config": {}}, "scale": true, "beta_regularizer": null, "beta_constraint": null, "epsilon": 0.001, "trainable": true, "axis": -1, "gamma_constraint": null, "name": "block11_sepconv1_bn", "gamma_regularizer": null, "center": true}, "inbound_nodes": [[["block11_sepconv1", 0, 0, {}]]]}, {"class_name": "Activation", "name": "block11_sepconv2_act", "config": {"name": "block11_sepconv2_act", "trainable": true, "activation": "relu"}, "inbound_nodes": [[["block11_sepconv1_bn", 0, 0, {}]]]}, {"class_name": "SeparableConv2D", "name": "block11_sepconv2", "config": {"padding": "same", "bias_constraint": null, "bias_initializer": {"class_name": "Zeros", "config": {}}, "pointwise_initializer": {"class_name": "VarianceScaling", "config": {"distribution": "uniform", "seed": null, "mode": "fan_avg", "scale": 1.0}}, "activation": "linear", "depthwise_constraint": null, "bias_regularizer": null, "pointwise_regularizer": null, "depthwise_regularizer": null, "filters": 728, "kernel_size": [3, 3], "pointwise_constraint": null, "data_format": "channels_last", "activity_regularizer": null, "trainable": true, "strides": [1, 1], "dilation_rate": [1, 1], "name": "block11_sepconv2", "use_bias": false, "depthwise_initializer": {"class_name": "VarianceScaling", "config": {"distribution": "uniform", "seed": null, "mode": "fan_avg", "scale": 1.0}}, "depth_multiplier": 1}, "inbound_nodes": [[["block11_sepconv2_act", 0, 0, {}]]]}, {"class_name": "BatchNormalization", "name": "block11_sepconv2_bn", "config": {"beta_initializer": {"class_name": "Zeros", "config": {}}, "moving_variance_initializer": {"class_name": "Ones", "config": {}}, "momentum": 0.99, "gamma_initializer": {"class_name": "Ones", "config": {}}, "moving_mean_initializer": {"class_name": "Zeros", "config": {}}, "scale": true, "beta_regularizer": null, "beta_constraint": null, "epsilon": 0.001, "trainable": true, "axis": -1, "gamma_constraint": null, "name": "block11_sepconv2_bn", "gamma_regularizer": null, "center": true}, "inbound_nodes": [[["block11_sepconv2", 0, 0, {}]]]}, {"class_name": "Activation", "name": "block11_sepconv3_act", "config": {"name": "block11_sepconv3_act", "trainable": true, "activation": "relu"}, "inbound_nodes": [[["block11_sepconv2_bn", 0, 0, {}]]]}, {"class_name": "SeparableConv2D", "name": "block11_sepconv3", "config": {"padding": "same", "bias_constraint": null, "bias_initializer": {"class_name": "Zeros", "config": {}}, "pointwise_initializer": {"class_name": "VarianceScaling", "config": {"distribution": "uniform", "seed": null, "mode": "fan_avg", "scale": 1.0}}, "activation": "linear", "depthwise_constraint": null, "bias_regularizer": null, "pointwise_regularizer": null, "depthwise_regularizer": null, "filters": 728, "kernel_size": [3, 3], "pointwise_constraint": null, "data_format": "channels_last", "activity_regularizer": null, "trainable": true, "strides": [1, 1], "dilation_rate": [1, 1], "name": "block11_sepconv3", "use_bias": false, "depthwise_initializer": {"class_name": "VarianceScaling", "config": {"distribution": "uniform", "seed": null, "mode": "fan_avg", "scale": 1.0}}, "depth_multiplier": 1}, "inbound_nodes": [[["block11_sepconv3_act", 0, 0, {}]]]}, {"class_name": "BatchNormalization", "name": "block11_sepconv3_bn", "config": {"beta_initializer": {"class_name": "Zeros", "config": {}}, "moving_variance_initializer": {"class_name": "Ones", "config": {}}, "momentum": 0.99, "gamma_initializer": {"class_name": "Ones", "config": {}}, "moving_mean_initializer": {"class_name": "Zeros", "config": {}}, "scale": true, "beta_regularizer": null, "beta_constraint": null, "epsilon": 0.001, "trainable": true, "axis": -1, "gamma_constraint": null, "name": "block11_sepconv3_bn", "gamma_regularizer": null, "center": true}, "inbound_nodes": [[["block11_sepconv3", 0, 0, {}]]]}, {"class_name": "Add", "name": "add_10", "config": {"name": "add_10", "trainable": true}, "inbound_nodes": [[["block11_sepconv3_bn", 0, 0, {}], ["add_9", 0, 0, {}]]]}, {"class_name": "Activation", "name": "block12_sepconv1_act", "config": {"name": "block12_sepconv1_act", "trainable": true, "activation": "relu"}, "inbound_nodes": [[["add_10", 0, 0, {}]]]}, {"class_name": "SeparableConv2D", "name": "block12_sepconv1", "config": {"padding": "same", "bias_constraint": null, "bias_initializer": {"class_name": "Zeros", "config": {}}, "pointwise_initializer": {"class_name": "VarianceScaling", "config": {"distribution": "uniform", "seed": null, "mode": "fan_avg", "scale": 1.0}}, "activation": "linear", "depthwise_constraint": null, "bias_regularizer": null, "pointwise_regularizer": null, "depthwise_regularizer": null, "filters": 728, "kernel_size": [3, 3], "pointwise_constraint": null, "data_format": "channels_last", "activity_regularizer": null, "trainable": true, "strides": [1, 1], "dilation_rate": [1, 1], "name": "block12_sepconv1", "use_bias": false, "depthwise_initializer": {"class_name": "VarianceScaling", "config": {"distribution": "uniform", "seed": null, "mode": "fan_avg", "scale": 1.0}}, "depth_multiplier": 1}, "inbound_nodes": [[["block12_sepconv1_act", 0, 0, {}]]]}, {"class_name": "BatchNormalization", "name": "block12_sepconv1_bn", "config": {"beta_initializer": {"class_name": "Zeros", "config": {}}, "moving_variance_initializer": {"class_name": "Ones", "config": {}}, "momentum": 0.99, "gamma_initializer": {"class_name": "Ones", "config": {}}, "moving_mean_initializer": {"class_name": "Zeros", "config": {}}, "scale": true, "beta_regularizer": null, "beta_constraint": null, "epsilon": 0.001, "trainable": true, "axis": -1, "gamma_constraint": null, "name": "block12_sepconv1_bn", "gamma_regularizer": null, "center": true}, "inbound_nodes": [[["block12_sepconv1", 0, 0, {}]]]}, {"class_name": "Activation", "name": "block12_sepconv2_act", "config": {"name": "block12_sepconv2_act", "trainable": true, "activation": "relu"}, "inbound_nodes": [[["block12_sepconv1_bn", 0, 0, {}]]]}, {"class_name": "SeparableConv2D", "name": "block12_sepconv2", "config": {"padding": "same", "bias_constraint": null, "bias_initializer": {"class_name": "Zeros", "config": {}}, "pointwise_initializer": {"class_name": "VarianceScaling", "config": {"distribution": "uniform", "seed": null, "mode": "fan_avg", "scale": 1.0}}, "activation": "linear", "depthwise_constraint": null, "bias_regularizer": null, "pointwise_regularizer": null, "depthwise_regularizer": null, "filters": 728, "kernel_size": [3, 3], "pointwise_constraint": null, "data_format": "channels_last", "activity_regularizer": null, "trainable": true, "strides": [1, 1], "dilation_rate": [1, 1], "name": "block12_sepconv2", "use_bias": false, "depthwise_initializer": {"class_name": "VarianceScaling", "config": {"distribution": "uniform", "seed": null, "mode": "fan_avg", "scale": 1.0}}, "depth_multiplier": 1}, "inbound_nodes": [[["block12_sepconv2_act", 0, 0, {}]]]}, {"class_name": "BatchNormalization", "name": "block12_sepconv2_bn", "config": {"beta_initializer": {"class_name": "Zeros", "config": {}}, "moving_variance_initializer": {"class_name": "Ones", "config": {}}, "momentum": 0.99, "gamma_initializer": {"class_name": "Ones", "config": {}}, "moving_mean_initializer": {"class_name": "Zeros", "config": {}}, "scale": true, "beta_regularizer": null, "beta_constraint": null, "epsilon": 0.001, "trainable": true, "axis": -1, "gamma_constraint": null, "name": "block12_sepconv2_bn", "gamma_regularizer": null, "center": true}, "inbound_nodes": [[["block12_sepconv2", 0, 0, {}]]]}, {"class_name": "Activation", "name": "block12_sepconv3_act", "config": {"name": "block12_sepconv3_act", "trainable": true, "activation": "relu"}, "inbound_nodes": [[["block12_sepconv2_bn", 0, 0, {}]]]}, {"class_name": "SeparableConv2D", "name": "block12_sepconv3", "config": {"padding": "same", "bias_constraint": null, "bias_initializer": {"class_name": "Zeros", "config": {}}, "pointwise_initializer": {"class_name": "VarianceScaling", "config": {"distribution": "uniform", "seed": null, "mode": "fan_avg", "scale": 1.0}}, "activation": "linear", "depthwise_constraint": null, "bias_regularizer": null, "pointwise_regularizer": null, "depthwise_regularizer": null, "filters": 728, "kernel_size": [3, 3], "pointwise_constraint": null, "data_format": "channels_last", "activity_regularizer": null, "trainable": true, "strides": [1, 1], "dilation_rate": [1, 1], "name": "block12_sepconv3", "use_bias": false, "depthwise_initializer": {"class_name": "VarianceScaling", "config": {"distribution": "uniform", "seed": null, "mode": "fan_avg", "scale": 1.0}}, "depth_multiplier": 1}, "inbound_nodes": [[["block12_sepconv3_act", 0, 0, {}]]]}, {"class_name": "BatchNormalization", "name": "block12_sepconv3_bn", "config": {"beta_initializer": {"class_name": "Zeros", "config": {}}, "moving_variance_initializer": {"class_name": "Ones", "config": {}}, "momentum": 0.99, "gamma_initializer": {"class_name": "Ones", "config": {}}, "moving_mean_initializer": {"class_name": "Zeros", "config": {}}, "scale": true, "beta_regularizer": null, "beta_constraint": null, "epsilon": 0.001, "trainable": true, "axis": -1, "gamma_constraint": null, "name": "block12_sepconv3_bn", "gamma_regularizer": null, "center": true}, "inbound_nodes": [[["block12_sepconv3", 0, 0, {}]]]}, {"class_name": "Add", "name": "add_11", "config": {"name": "add_11", "trainable": true}, "inbound_nodes": [[["block12_sepconv3_bn", 0, 0, {}], ["add_10", 0, 0, {}]]]}, {"class_name": "Activation", "name": "block13_sepconv1_act", "config": {"name": "block13_sepconv1_act", "trainable": true, "activation": "relu"}, "inbound_nodes": [[["add_11", 0, 0, {}]]]}, {"class_name": "SeparableConv2D", "name": "block13_sepconv1", "config": {"padding": "same", "bias_constraint": null, "bias_initializer": {"class_name": "Zeros", "config": {}}, "pointwise_initializer": {"class_name": "VarianceScaling", "config": {"distribution": "uniform", "seed": null, "mode": "fan_avg", "scale": 1.0}}, "activation": "linear", "depthwise_constraint": null, "bias_regularizer": null, "pointwise_regularizer": null, "depthwise_regularizer": null, "filters": 728, "kernel_size": [3, 3], "pointwise_constraint": null, "data_format": "channels_last", "activity_regularizer": null, "trainable": true, "strides": [1, 1], "dilation_rate": [1, 1], "name": "block13_sepconv1", "use_bias": false, "depthwise_initializer": {"class_name": "VarianceScaling", "config": {"distribution": "uniform", "seed": null, "mode": "fan_avg", "scale": 1.0}}, "depth_multiplier": 1}, "inbound_nodes": [[["block13_sepconv1_act", 0, 0, {}]]]}, {"class_name": "BatchNormalization", "name": "block13_sepconv1_bn", "config": {"beta_initializer": {"class_name": "Zeros", "config": {}}, "moving_variance_initializer": {"class_name": "Ones", "config": {}}, "momentum": 0.99, "gamma_initializer": {"class_name": "Ones", "config": {}}, "moving_mean_initializer": {"class_name": "Zeros", "config": {}}, "scale": true, "beta_regularizer": null, "beta_constraint": null, "epsilon": 0.001, "trainable": true, "axis": -1, "gamma_constraint": null, "name": "block13_sepconv1_bn", "gamma_regularizer": null, "center": true}, "inbound_nodes": [[["block13_sepconv1", 0, 0, {}]]]}, {"class_name": "Activation", "name": "block13_sepconv2_act", "config": {"name": "block13_sepconv2_act", "trainable": true, "activation": "relu"}, "inbound_nodes": [[["block13_sepconv1_bn", 0, 0, {}]]]}, {"class_name": "SeparableConv2D", "name": "block13_sepconv2", "config": {"padding": "same", "bias_constraint": null, "bias_initializer": {"class_name": "Zeros", "config": {}}, "pointwise_initializer": {"class_name": "VarianceScaling", "config": {"distribution": "uniform", "seed": null, "mode": "fan_avg", "scale": 1.0}}, "activation": "linear", "depthwise_constraint": null, "bias_regularizer": null, "pointwise_regularizer": null, "depthwise_regularizer": null, "filters": 1024, "kernel_size": [3, 3], "pointwise_constraint": null, "data_format": "channels_last", "activity_regularizer": null, "trainable": true, "strides": [1, 1], "dilation_rate": [1, 1], "name": "block13_sepconv2", "use_bias": false, "depthwise_initializer": {"class_name": "VarianceScaling", "config": {"distribution": "uniform", "seed": null, "mode": "fan_avg", "scale": 1.0}}, "depth_multiplier": 1}, "inbound_nodes": [[["block13_sepconv2_act", 0, 0, {}]]]}, {"class_name": "BatchNormalization", "name": "block13_sepconv2_bn", "config": {"beta_initializer": {"class_name": "Zeros", "config": {}}, "moving_variance_initializer": {"class_name": "Ones", "config": {}}, "momentum": 0.99, "gamma_initializer": {"class_name": "Ones", "config": {}}, "moving_mean_initializer": {"class_name": "Zeros", "config": {}}, "scale": true, "beta_regularizer": null, "beta_constraint": null, "epsilon": 0.001, "trainable": true, "axis": -1, "gamma_constraint": null, "name": "block13_sepconv2_bn", "gamma_regularizer": null, "center": true}, "inbound_nodes": [[["block13_sepconv2", 0, 0, {}]]]}, {"class_name": "Conv2D", "name": "conv2d_4", "config": {"padding": "same", "bias_constraint": null, "kernel_regularizer": null, "data_format": "channels_last", "activation": "linear", "name": "conv2d_4", "filters": 1024, "kernel_size": [1, 1], "kernel_constraint": null, "strides": [2, 2], "activity_regularizer": null, "trainable": true, "bias_initializer": {"class_name": "Zeros", "config": {}}, "use_bias": false, "bias_regularizer": null, "kernel_initializer": {"class_name": "VarianceScaling", "config": {"distribution": "uniform", "seed": null, "mode": "fan_avg", "scale": 1.0}}, "dilation_rate": [1, 1]}, "inbound_nodes": [[["add_11", 0, 0, {}]]]}, {"class_name": "MaxPooling2D", "name": "block13_pool", "config": {"padding": "same", "strides": [2, 2], "data_format": "channels_last", "trainable": true, "name": "block13_pool", "pool_size": [3, 3]}, "inbound_nodes": [[["block13_sepconv2_bn", 0, 0, {}]]]}, {"class_name": "BatchNormalization", "name": "batch_normalization_4", "config": {"beta_initializer": {"class_name": "Zeros", "config": {}}, "moving_variance_initializer": {"class_name": "Ones", "config": {}}, "momentum": 0.99, "gamma_initializer": {"class_name": "Ones", "config": {}}, "moving_mean_initializer": {"class_name": "Zeros", "config": {}}, "scale": true, "beta_regularizer": null, "beta_constraint": null, "epsilon": 0.001, "trainable": true, "axis": -1, "gamma_constraint": null, "name": "batch_normalization_4", "gamma_regularizer": null, "center": true}, "inbound_nodes": [[["conv2d_4", 0, 0, {}]]]}, {"class_name": "Add", "name": "add_12", "config": {"name": "add_12", "trainable": true}, "inbound_nodes": [[["block13_pool", 0, 0, {}], ["batch_normalization_4", 0, 0, {}]]]}, {"class_name": "SeparableConv2D", "name": "block14_sepconv1", "config": {"padding": "same", "bias_constraint": null, "bias_initializer": {"class_name": "Zeros", "config": {}}, "pointwise_initializer": {"class_name": "VarianceScaling", "config": {"distribution": "uniform", "seed": null, "mode": "fan_avg", "scale": 1.0}}, "activation": "linear", "depthwise_constraint": null, "bias_regularizer": null, "pointwise_regularizer": null, "depthwise_regularizer": null, "filters": 1536, "kernel_size": [3, 3], "pointwise_constraint": null, "data_format": "channels_last", "activity_regularizer": null, "trainable": true, "strides": [1, 1], "dilation_rate": [1, 1], "name": "block14_sepconv1", "use_bias": false, "depthwise_initializer": {"class_name": "VarianceScaling", "config": {"distribution": "uniform", "seed": null, "mode": "fan_avg", "scale": 1.0}}, "depth_multiplier": 1}, "inbound_nodes": [[["add_12", 0, 0, {}]]]}, {"class_name": "BatchNormalization", "name": "block14_sepconv1_bn", "config": {"beta_initializer": {"class_name": "Zeros", "config": {}}, "moving_variance_initializer": {"class_name": "Ones", "config": {}}, "momentum": 0.99, "gamma_initializer": {"class_name": "Ones", "config": {}}, "moving_mean_initializer": {"class_name": "Zeros", "config": {}}, "scale": true, "beta_regularizer": null, "beta_constraint": null, "epsilon": 0.001, "trainable": true, "axis": -1, "gamma_constraint": null, "name": "block14_sepconv1_bn", "gamma_regularizer": null, "center": true}, "inbound_nodes": [[["block14_sepconv1", 0, 0, {}]]]}, {"class_name": "Activation", "name": "block14_sepconv1_act", "config": {"name": "block14_sepconv1_act", "trainable": true, "activation": "relu"}, "inbound_nodes": [[["block14_sepconv1_bn", 0, 0, {}]]]}, {"class_name": "SeparableConv2D", "name": "block14_sepconv2", "config": {"padding": "same", "bias_constraint": null, "bias_initializer": {"class_name": "Zeros", "config": {}}, "pointwise_initializer": {"class_name": "VarianceScaling", "config": {"distribution": "uniform", "seed": null, "mode": "fan_avg", "scale": 1.0}}, "activation": "linear", "depthwise_constraint": null, "bias_regularizer": null, "pointwise_regularizer": null, "depthwise_regularizer": null, "filters": 2048, "kernel_size": [3, 3], "pointwise_constraint": null, "data_format": "channels_last", "activity_regularizer": null, "trainable": true, "strides": [1, 1], "dilation_rate": [1, 1], "name": "block14_sepconv2", "use_bias": false, "depthwise_initializer": {"class_name": "VarianceScaling", "config": {"distribution": "uniform", "seed": null, "mode": "fan_avg", "scale": 1.0}}, "depth_multiplier": 1}, "inbound_nodes": [[["block14_sepconv1_act", 0, 0, {}]]]}, {"class_name": "BatchNormalization", "name": "block14_sepconv2_bn", "config": {"beta_initializer": {"class_name": "Zeros", "config": {}}, "moving_variance_initializer": {"class_name": "Ones", "config": {}}, "momentum": 0.99, "gamma_initializer": {"class_name": "Ones", "config": {}}, "moving_mean_initializer": {"class_name": "Zeros", "config": {}}, "scale": true, "beta_regularizer": null, "beta_constraint": null, "epsilon": 0.001, "trainable": true, "axis": -1, "gamma_constraint": null, "name": "block14_sepconv2_bn", "gamma_regularizer": null, "center": true}, "inbound_nodes": [[["block14_sepconv2", 0, 0, {}]]]}, {"class_name": "Activation", "name": "block14_sepconv2_act", "config": {"name": "block14_sepconv2_act", "trainable": true, "activation": "relu"}, "inbound_nodes": [[["block14_sepconv2_bn", 0, 0, {}]]]}], "output_layers": [["block14_sepconv2_act", 0, 0]]}}}, "inbound_nodes": [[["input_1", 0, 0, {}]]]}, {"class_name": "ConvLSTM2D", "name": "conv_lst_m2d_1", "config": {"padding": "same", "recurrent_activation": "hard_sigmoid", "kernel_constraint": null, "return_state": false, "go_backwards": false, "unroll": false, "dropout": 0.0, "bias_initializer": {"class_name": "Zeros", "config": {}}, "unit_forget_bias": true, "return_sequences": false, "use_bias": true, "bias_regularizer": null, "recurrent_dropout": 0.0, "kernel_initializer": {"class_name": "VarianceScaling", "config": {"distribution": "uniform", "scale": 1.0, "mode": "fan_avg", "seed": null}}, "dilation_rate": [1, 1], "bias_constraint": null, "kernel_regularizer": null, "data_format": "channels_last", "recurrent_regularizer": null, "activation": "tanh", "stateful": false, "filters": 64, "kernel_size": [7, 7], "strides": [2, 2], "activity_regularizer": null, "trainable": true, "recurrent_constraint": null, "name": "conv_lst_m2d_1", "recurrent_initializer": {"class_name": "Orthogonal", "config": {"gain": 1.0, "seed": null}}}, "inbound_nodes": [[["time_distributed_1", 0, 0, {}]]]}, {"class_name": "GlobalAveragePooling2D", "name": "global_average_pooling2d_1", "config": {"name": "global_average_pooling2d_1", "data_format": "channels_last", "trainable": true}, "inbound_nodes": [[["conv_lst_m2d_1", 0, 0, {}]]]}, {"class_name": "Dense", "name": "dense_1", "config": {"bias_constraint": null, "kernel_constraint": null, "use_bias": true, "activation": "relu", "kernel_regularizer": null, "activity_regularizer": null, "trainable": true, "units": 1024, "bias_initializer": {"class_name": "Zeros", "config": {}}, "name": "dense_1", "bias_regularizer": null, "kernel_initializer": {"class_name": "VarianceScaling", "config": {"distribution": "uniform", "scale": 1.0, "mode": "fan_avg", "seed": null}}}, "inbound_nodes": [[["global_average_pooling2d_1", 0, 0, {}]]]}, {"class_name": "Dropout", "name": "dropout_1", "config": {"rate": 0.2, "name": "dropout_1", "noise_shape": null, "trainable": true, "seed": null}, "inbound_nodes": [[["dense_1", 0, 0, {}]]]}, {"class_name": "Dense", "name": "dense_2", "config": {"bias_constraint": null, "kernel_constraint": null, "use_bias": true, "activation": "relu", "kernel_regularizer": null, "activity_regularizer": null, "trainable": true, "units": 512, "bias_initializer": {"class_name": "Zeros", "config": {}}, "name": "dense_2", "bias_regularizer": null, "kernel_initializer": {"class_name": "VarianceScaling", "config": {"distribution": "uniform", "scale": 1.0, "mode": "fan_avg", "seed": null}}}, "inbound_nodes": [[["dropout_1", 0, 0, {}]]]}, {"class_name": "Dense", "name": "dense_3", "config": {"bias_constraint": null, "kernel_constraint": null, "use_bias": true, "activation": "softmax", "kernel_regularizer": null, "activity_regularizer": null, "trainable": true, "units": 5, "bias_initializer": {"class_name": "Zeros", "config": {}}, "name": "dense_3", "bias_regularizer": null, "kernel_initializer": {"class_name": "VarianceScaling", "config": {"distribution": "uniform", "scale": 1.0, "mode": "fan_avg", "seed": null}}}, "inbound_nodes": [[["dense_2", 0, 0, {}]]]}], "output_layers": [["dense_3", 0, 0]]}, "backend": "tensorflow"}